weight/pytorch.pt (torch, 119511 bytes, 6 tensors)

weight f4 [16, 1, 5, 5]
-0.124621175 -0.0562073 0.15085764 -0.10879495 -0.11405458 0.16830651 0.18425839 0.13807957
-0.1377006 -0.05420685 -0.14967379 0.09781431 -0.13991395 0.14135663 -0.037297845 -0.0013079643
0.12515862 -0.055264562 0.16285835 -0.1589725 -0.15687828 0.062957 0.046812534 0.13384582
0.032962963 0.08592932 0.16913088 -0.10595264 -0.028062508 -0.06023243 0.1903361 0.14713784
-0.02904895 -0.07818349 0.004699677 0.03373936 0.14747895 0.11098398 -0.00020608306 0.027887255
-0.1626637 0.16650523 0.031997293 -0.053466365 -0.09471216 -0.17918025 0.17712136 -0.05835691
0.06498797 -0.035603642 0.013210386 -0.15264806 0.09391393 -0.054454237 0.124766365 -0.14925238
-0.046939448 0.16684105 0.15405954 0.017232776 0.14197282 0.0787404 -0.13225861 -0.1568478
0.057106838 0.12678994 0.15289389 0.18532385 -0.022922188 -0.056509137 0.17694421 -0.016423106
0.11341448 0.05217199 -0.19412494 0.19737776 -0.049927145 -0.11699889 -0.13725182 -0.08110028
0.014194801 -0.08031976 -0.17104958 0.15393282 0.16178752 0.029851824 -0.15425761 -0.0034163892
0.15129362 0.16618644 0.15948723 0.09122877 0.065697625 -0.06476803 0.023202345 -0.006454557
-0.13034406 -0.14094238 -0.027073115 0.14411695 0.055150017 0.091322884 0.02929768 -0.13661483
-0.10069306 0.12166537 -0.16284767 -0.19421661 0.017861202 -0.15882888 -0.031755045 -0.19885615
-0.19255729 0.10070588 -0.04214391 -0.15690196 -0.10549491 -0.0072229803 -0.18028986 -0.022814944
0.035147265 0.009233683 0.10568501 -0.122699045 -0.032221407 0.17321892 -0.15062508 -0.0844182
0.10468499 -0.18960838 -0.14975409 0.12623157 0.1840563 0.009110615 0.06204994 -0.041544944
-0.15480669 -0.18772689 -0.04901102 0.032799244 0.06232132 0.10674308 0.18622999 -0.14203198
0.18927841 0.069748655 -0.05299385 -0.19642916 -0.05178204 0.044264168 0.06291832 -0.00740318
0.016530082 0.05152683 0.06891288 -0.052934885 0.0610715 -0.13262805 0.014867738 0.03863804
0.0118715465 0.12402399 -0.09844575 -0.16768909 -0.060286433 -0.17960325 -0.14884055 -0.19448383
0.13913216 0.15690564 0.18710668 -0.1205349 0.035118252 0.16130848 -0.18218692 0.1380725
-0.09141214 -0.1899472 -0.11993978 0.089500085 -0.17482908 0.020680815 -0.14097953 -0.03252116
-0.034309715 0.13061632 0.15097119 -0.16997366 0.12329759 0.16062085 -0.18329552 -0.13462952
-0.10246601 0.038904577 0.028454348 0.064383045 0.05583076 0.09751578 0.16553177 -0.17096339
0.12203525 -0.13740042 -0.10867579 -0.10736096 0.17546509 0.10307355 -0.1967018 -0.1413465
-0.017238736 0.13522531 0.03618081 -0.025359675 -0.18553443 0.07978667 -0.027390748 -0.13885693
0.020993903 0.10331972 0.19043918 0.1001661 -0.17936805 0.19986139 0.011521846 0.11163159
0.061382547 0.014471889 0.016593188 0.08301081 -0.18048802 0.13579406 0.08620189 -0.15364471
0.12422474 0.01598069 -0.08369396 0.079376474 -0.0005963594 -0.09940419 -0.100626305 -0.05749969
-0.008911416 0.06949817 -0.14353573 -0.03598614 -0.045120806 0.061041698 0.07564069 0.19537236
-0.17381115 -0.10423298 -0.12442608 -0.007053897 0.12802555 -0.012950018 0.0042840987 -0.17953491
00000000: 6339 ffbd a039 66bd 6d7a 1a3e e3cf debd
00000010: 7395 e9bd 8b58 2c3e 3bae 3c3e bb64 0d3e
00000020: 6301 0dbe 0008 5ebd 1644 19be de52 c83d
00000030: 9a45 0fbe cbbf 103e a0c5 18bd 0070 abba
00000040: 9529 003e 185d 62bd 57c4 263e b0c9 22be
00000050: b3a4 20be 9aef 803d 80be 3f3d e10e 093e
00000060: 2c04 073d b6fb af3d a530 2d3e b3fd d8bd
00000070: 58e3 e5bc 48b6 76bd 77e7 423e 4dab 163e
00000080: 10f8 edbc aa1e a0bd c0ff 993b 4832 0a3d
00000090: b904 173e 924b e33d 0018 58b9 d073 e43c
000000a0: 5091 26be 5980 2a3e 980f 033d 8cff 5abd
000000b0: 73f8 c1bd 077b 37be 4d5f 353e a807 6fbd
000000c0: 6a18 853d 20d5 11bd 6070 583c c64f 1cbe
000000d0: f255 c03d 680b 5fbd 8285 ff3d 9ed5 18be
000000e0: 9443 40bd 61d8 2a3e c9c1 1d3e c02b 8d3c
000000f0: 5361 113e a642 a13d cd6e 07be b69c 20be
00000100: dce8 693d 39d5 013e 3790 1c3e 89c5 3d3e
00000110: 50c7 bbbc 2076 67bd dd30 353e c089 86bc
00000120: da45 e83d 4cb2 553d b0c8 46be 651d 4a3e
00000130: 6880 4cbd 1d9d efbd be8b 0cbe e717 a6bd
00000140: 5091 683c b07e a4bd 9f27 2fbe 91a0 1d3e
00000150: a1ab 253e d08b f43c b5f5 1dbe 80e5 5fbb
00000160: b7ec 1a3e c72c 2a3e 9f50 233e 26d6 ba3d
00000170: 7a8c 863d 1aa5 84bd d812 be3c c080 d3bb
00000180: ea78 05be 3353 10be 70c8 ddbc 6593 133e
00000190: fce4 613d 7e07 bb3d b001 f03c c2e4 0bbe
000001a0: 2a38 cebd b22b f93d 8ac1 26be b8e0 46be
000001b0: a851 923c 0aa4 22be 9411 02bd f2a0 4bbe
000001c0: bd2d 45be e23e ce3d 189f 2cbd e8aa 20be
000001d0: b70d d8bd c0ae ecbb e89d 38be 68e6 babc
000001e0: 94f6 0f3d e048 173c 6271 d83d a349 fbbd
000001f0: 98fa 03bd 4d60 313e 763d 1abe 73e3 acbd
00000200: 1665 d63d b328 42be 2359 19be d942 013e
00000210: 4179 3c3e b044 153c 1428 7e3d 082b 2abd
00000220: a585 1ebe 7a3b 40be c8bf 48bd 8058 063d
00000230: a444 7f3d 1e9c da3d 13b3 3e3e d570 11be
00000240: 33d2 413e 62d8 8e3d 1410 59bd ba24 49be
00000250: 6819 54bd 584e 353d 52db 803d 6096 f2bb
00000260: 186a 873c cc0d 533d 3222 8d3d 40d2 58bd
00000270: 1c26 7a3d a6cf 07be d097 733c ec42 1e3d
00000280: e080 423c 4a00 fe3d ed9d c9bd b0b6 2bbe
00000290: e8ee 76bd eae9 37be a869 18be c526 47be
000002a0: a978 0e3e dfab 203e e598 3f3e 00db f6bd
000002b0: 28d8 0f3d 0d2e 253e 358f 3abe e162 0d3e
000002c0: 4a36 bbbd 8581 42be fda2 f5bd d24b b73d
000002d0: 6506 33be d06a a93c f05c 10be e834 05bd
000002e0: 5888 0cbd 49c0 053e 3198 1a3e 930d 2ebe
000002f0: 7283 fc3d cb79 243e d2b1 3bbe 52dc 09be
00000300: b3d9 d1bd 685a 1f3d 1819 e93c 42db 833d
00000310: ccae 643d 5ab6 c73d 2981 293e 0711 2fbe
00000320: 9eed f93d b2b2 0cbe 6a91 debd 10e0 dbbd
00000330: 1fad 333e 3a18 d33d 326c 49be 23bd 10be
00000340: 4038 8dbc 8178 0a3e 5432 143d 18bf cfbc
00000350: bdfc 3dbe 3267 a33d 9062 e0bc 8330 0ebe
00000360: 68fb ab3c 4a99 d33d 7d02 433e e223 cd3d
00000370: 42ac 37be 77a8 4c3e 20c6 3c3c 1a9f e43d
00000380: 446c 7b3d 801b 6d3c 70ee 873c 9201 aa3d
00000390: dad1 38be 990d 0b3e 9e8a b03d 0a55 1dbe
000003a0: 8a69 fe3d f0e9 823c bd67 abbd 2290 a23d
000003b0: 0055 1cba 6d94 cbbd 2a15 cebd cc84 6bbd
000003c0: 3001 12bc 0e55 8e3d 08fb 12be 3466 13bd
000003d0: 98d0 38bd dc06 7a3d 82e9 9a3d b10f 483e
000003e0: 8dfb 31be 1a78 d5bd 1ad3 febd 6024 e7bb
000003f0: 2119 033e 502c 54bc a061 8c3b 00d8 37be

bias f4 [16]
0.19851814 0.10487516 0.09394358 0.1596481 -0.15396635 -0.07962763 -0.15947506 0.0064721853
0.10664572 -0.18269792 0.07692756 0.10151081 -0.009850651 0.088194475 0.15673532 0.034403324
00000000: 5748 4b3e cac8 d63d 7e65 c03d cb7a 233e
00000010: 5ba9 1dbe d013 a3bd 6e4d 23be a014 d43b
00000020: 1269 da3d 2a15 3bbe 328c 9d3d e6e4 cf3d
00000030: a064 21bc 4e9f b43d 397f 203e 80ea 0c3d

weight f4 [32, 16, 5, 5]
1.5832484e-05 0.013100836 0.009927444 0.034284744 0.043330517 -0.026867682 0.033993963 0.043149117
-0.016769756 -0.040156566 -0.0003998056 0.006888967 0.02441455 -0.026718432 -0.0030000694 -0.005173981
-0.03274697 -0.035942577 -0.031714708 -0.016438521 -0.04657027 -0.011361487 0.0013299584 0.0025175288
-0.036784343 0.021447215 -0.0011055954 0.0137182735 0.039152395 0.016021643 0.0039620176 -0.046283066
-0.045128383 0.0017205104 0.01949123 -0.004487496 0.010736488 -0.033061683 -0.046059348 -0.0077998936
-0.0182072 0.048950862 -0.011479419 -0.00937302 0.018549059 0.016649153 -0.014295321 0.0064187422
0.03156026 -0.034021035 -0.010224272 -0.015099425 -0.006014753 0.013685185 -0.013912011 0.027770866
-0.002254676 0.043292437 0.0025864467 -0.039419837 0.0003458485 0.04432978 0.040797304 -0.027969439
0.0015842691 0.03070077 -0.0036519058 -0.028397335 0.023938742 -0.013241611 0.035845038 -0.038033586
0.0012442656 -0.010686256 -0.023310626 -0.005644392 -0.036029834 0.028998401 0.011841465 -0.037299715
-0.0017193668 0.03383873 0.023914102 -0.0046741143 0.037150685 -0.006163031 -0.0010564849 -0.043185838
0.042115625 -0.03544436 0.006260425 -0.0059029832 0.048135225 -0.010669701 -0.04280001 0.041846644
-0.030687261 -0.008808266 -0.004410047 0.0037692375 -0.015013557 -0.047098525 -0.044870574 0.013121311
-0.04311345 0.023923222 0.040199015 0.033820603 0.013869006 0.03513108 0.024662558 -0.04909079
0.000732027 -0.049732305 -0.01769387 -0.026922345 0.028320935 -0.0060283765 0.045334492 0.010371309
0.004657019 0.027478065 -0.030764062 0.01738656 0.033088926 0.0024664588 -0.011150546 -0.033746697
-0.021818478 -0.041493326 0.024957594 0.04414049 0.045622464 0.02456401 0.045841422 -0.04800566
-0.042667773 0.034168143 -0.040031303 -0.04010711 -0.019469846 -0.022624983 -0.01886999 0.0031284913
0.011654794 -0.039489847 -0.0009727776 0.03324352 0.02195293 -0.04039185 -0.029467005 -0.012975238
0.04708268 -0.036414683 0.0115869455 0.018226508 -0.029133612 -0.036758613 -0.04017341 0.04477672
0.024374697 0.035320845 0.035800036 0.028636169 -0.02202881 -0.020397408 -0.030992663 0.044159923
-0.029364843 -0.016850054 -0.046957966 0.03804983 -0.019102579 0.011089541 -0.013268381 -0.014287025
0.0284161 -0.008106988 0.00096805766 0.04691856 0.042120818 -0.012248002 -0.03011334 0.018790085
0.045818094 0.019281846 -0.0011937246 0.04376286 -0.009366114 -0.03590996 -0.003754504 -0.031847425
-0.01807087 0.025442112 0.044530187 0.035368536 -0.02530386 0.011190068 -0.00893604 -0.025032515
0.021821883 -0.013920356 -0.025755538 -0.004539907 0.038706426 0.016290259 -0.014987338 -0.04957306
-0.03973802 0.01056502 0.041117225 0.03483213 -0.025966704 -0.010403991 -0.010184534 0.04745504
-0.04188622 0.0313032 -0.04636554 -0.024722904 -0.0048040077 -0.035139035 -0.04980428 0.023309555
0.04826088 0.023721676 -0.047563206 -0.012180597 -0.031188512 -0.025880117 0.0026399307 -0.013124306
-0.019997543 -0.042167723 -0.030122275 -0.039405596 -0.0023598745 -0.042719245 0.022829156 0.020671818
-0.048167676 -0.004922081 0.036472093 0.0012599453 0.021356914 -0.007492859 0.012217499 0.035703015
0.04063249 -0.008624248 -0.026754487 -0.026191074 0.02695841 0.012093723 0.024057064 0.034083996
00000000: 00d0 8437 e4a4 563c b8a6 223c 296e 0c3d
00000010: 577b 313d 9d19 dcbc 413d 0b3d 21bd 303d
00000020: ba60 89bc 367b 24bd 009d d1b9 d8bc e13b
00000030: 0601 c83c 9de0 dabc d09c 44bb 808a a9bb
00000040: b021 06bd 8638 13bd 48e7 01bd 14aa 86bc
00000050: 78c0 3ebd 8825 3abc 0052 ae3a 20fd 243b
00000060: 2eab 16bd 12b2 af3c a0e9 90ba 9cc2 603c
00000070: 435e 203d d23f 833c d0d3 813b 5093 3dbd
00000080: 8ad8 38bd c082 e13a 12ac 9f3c d80b 93bb
00000090: 18e8 2f3c b06b 07bd baa8 3cbd 4096 ffbb
000000a0: 4427 95bc b380 483d 2c14 3cbc 4c91 19bc
000000b0: 32f4 973c ce63 883c ec36 6abc 5054 d23b
000000c0: 5545 013d a459 0bbd b483 27bc 9463 77bc
000000d0: 6817 c5bb d437 603c 34ef 63bc ba7f e33c
000000e0: 30c3 13bb 6953 313d 6081 293b b276 21bd
000000f0: 0053 b539 2593 353d 131b 273d 2a20 e5bc
00000100: 40a7 cf3a 2e80 fb3c d054 6fbb 87a1 e8bc
00000110: 2e1b c43c 58f3 58bc 3fd2 123d 1bc9 1bbd
00000120: a016 a33a 6815 2fbc edf5 bebc 98f4 b8bb
00000130: 0594 13bd 0e8e ed3c b402 423c 96c7 18bd
00000140: 605c e1ba 7b9a 0a3d 82e7 c33c 5029 99bb
00000150: 512b 183d 40f3 c9bb c079 8aba a2e3 30bd
00000160: 6f81 2c3d 1b2e 11bd 4024 cd3b d06d c1bb
00000170: 7129 453d f8cf 2ebc 104f 2fbd 6367 2b3d
00000180: da63 fbbc 8c50 10bc 2882 90bb 5005 773b
00000190: 6cfb 75bc 62ea 40bd 35ca 37bd c4fa 563c
000001a0: bb97 30bd a2fa c33c b9a7 243d 7987 0a3d
000001b0: d43a 633c 9be5 0f3d 2209 ca3c 6d13 49bd
000001c0: 80e5 3f3a 1ab4 4bbd bcf2 90bc 408c dcbc
000001d0: 4e01 e83c b089 c5bb a9b0 393d 6cec 293c
000001e0: e899 983b ae19 e13c ea04 fcbc 426e 8e3c
000001f0: 4188 073d 50a4 213b c8b0 36bc fa39 0abd
00000200: aabc b2bc e8f4 29bd de73 cc3c a9cc 343d
00000210: 9fde 3a3d 763a c93c 37c4 3b3d 95a1 44bd
00000220: 67c4 2ebd e5f3 0b3d ddf7 23bd 5a47 24bd
00000230: 3a7f 9fbc 0758 b9bc 3d95 9abc 6007 4d3b
00000240: c0f3 3e3c 1bc0 21bd 0002 7fba 5b2a 083d
00000250: a2d6 b33c ed71 25bd ca64 f1bc 1896 54bc
00000260: c5d9 403d 9027 15bd 2cd7 3d3c c24f 953c
00000270: 9da9 eebc 3390 16bd e08c 24bd cb67 373d
00000280: 72ad c73c 97ac 103d 0fa3 123d 6696 ea3c
00000290: c375 b4bc 7718 a7bc 53e4 fdbc 09e1 343d
000002a0: 8a8e f0bc 2009 8abc ff56 40bd 23da 1b3d
000002b0: 037d 9cbc e8b0 353c a063 59bc 2014 6abc
000002c0: e2c8 e83c 2cd3 04bc 40c5 7d3a ad2d 403d
000002d0: e186 2c3d d8ab 48bc 40b0 f6bc aaed 993c
000002e0: c1ab 3b3d f6f4 9d3c c076 9cba af40 333d
000002f0: 5474 19bc 5216 13bd 200e 76bb 7272 02bd
00000300: 5c09 94bc fa6b d03c 4965 363d 99de 103d
00000310: 0a4a cfbc 8c56 373c 7868 12bc fd10 cdbc
00000320: cec3 b23c 3412 64bc 47fd d2bc 80c3 94bb
00000330: a18a 1e3d 2673 853c 748d 75bc 1f0d 4bbd
00000340: 56c4 22bd e818 2d3c 896a 283d 23ac 0e3d
00000350: 20b8 d4bc 8075 2abc 08dd 26bc 3760 423d
00000360: e390 2bbd c937 003d cbe9 3dbd b087 cabc
00000370: f06a 9dbb f3ed 0fbd 93ff 4bbd aef3 be3c
00000380: 33ad 453d f653 c23c a3d1 42bd 2091 47bc
00000390: 0d7f ffbc 8a02 d4bc b002 2d3b 5407 57bc
000003a0: e3d1 a3bc 10b8 2cbd fdc2 f6bc c367 21bd
000003b0: 20a8 1abb 60fa 2ebd 3604 bb3c f257 a93c
000003c0: 784b 45bd 6849 a1bb c363 153d c024 a53a
000003d0: b2f4 ae3c a886 f5bb e82b 483c 533d 123d
000003e0: 416e 263d b84c 0dbc 3a2c dbbc aa8e d6bc
000003f0: e2d7 dc3c c024 463c 5213 c53c a99b 0b3d

bias f4 [32]
0.041728426 -0.036291033 0.016484533 0.04177693 -0.015285425 0.008591659 0.011941284 -0.0033822358
0.043658946 0.023734596 -0.023287922 0.008472275 0.036804173 0.032590304 -0.017921977 0.016336542
0.018805642 -0.04430293 0.038636234 0.02897897 -0.024897933 0.04553469 -0.01574663 0.02777863
-0.018638939 0.031562734 -0.048110187 -0.045217425 0.02621777 0.029411968 -0.021069873 -0.004159428
00000000: 6deb 2a3d e8a5 14bd 920a 873c 491e 2b3d
00000010: b86f 7abc 08c4 0c3c 60a5 433c 80a8 5dbb
00000020: b9d3 323d 0e6f c23c 50c6 bebc 4ccf 0a3c
00000030: f9bf 163d 697d 053d 1cd1 92bc 36d4 853c
00000040: 4a0e 9a3c fd76 35bd 0741 1e3d 4e65 ed3c
00000050: c0f6 cbbc 9582 3a3d 14ff 80bc 0290 e33c
00000060: b0b0 98bc ed47 013d 300f 45bd e835 39bd
00000070: a6c6 d63c 5ef1 f03c ba9a acbc d04b 88bb

weight f4 [10, 1568]
0.0070521645 0.019910693 0.014360931 -0.012993118 0.0004673656 0.00092992745 -0.0011381283 0.0027249176
0.014748223 0.010406282 -0.022272967 -0.006789468 0.0065340437 -0.02461667 -0.016681807 -0.015925176
-0.012318419 0.022268154 0.005554892 -0.012227879 -0.0017475262 -0.015652638 0.010594916 -0.0075101554
-0.011210171 -0.024629517 0.007984471 0.021973033 0.0013355352 0.0024892148 0.022514 0.0218378
0.008359414 -0.021591343 0.0030939076 -0.023835894 -0.021584537 0.01451328 0.00942586 0.015541833
0.010384761 -0.0063183308 0.014871102 -0.019836089 0.016388826 0.02519704 0.0054639056 -0.0104857385
0.010203794 -0.016400438 0.016400333 0.005668016 -0.02043533 -0.022656765 0.022814326 0.019152299
-0.01707711 -0.014831774 -0.00082507543 0.01585868 0.016107 -0.0068452414 0.00880532 -0.014160754
-0.0017539654 0.007533945 0.02168956 -0.021981116 0.02387198 -0.010441388 0.021436572 0.016268305
-0.020475328 -0.021346867 -0.0046507753 0.019040376 -0.0127103245 -0.0046507902 -0.013978035 0.00044271722
0.012627386 -0.004714038 0.0074523985 0.0036032032 0.025060244 -0.023784949 -0.016892873 0.024894789
0.020704009 -0.012141038 9.890273e-05 0.021118198 0.022506416 -0.024367943 -0.008708723 0.02453345
0.0071953163 0.021843709 0.018835004 0.0054300576 -0.021036219 -0.019040741 -0.01114814 0.018655349
-0.016408939 0.002717713 -0.022085726 0.0025286842 0.0014511123 0.0018495787 -0.0060163625 -0.014728029
0.0062135123 -0.00045367703 0.008554563 -0.014809187 -0.0049366094 -0.014677838 -0.010942641 0.015536733
-0.02271167 -0.005009938 -0.0061658733 -0.023739778 -0.005172897 0.007039994 0.019088011 0.023700926
-0.017534781 0.0177124 0.023734163 -0.01532451 0.016200233 0.01793056 0.013536878 0.015467618
0.004487535 -0.009707933 -0.02329755 0.010755576 -0.014794859 0.022894751 0.019474756 -0.018684303
-0.010563421 -0.024329579 -0.021646883 -0.005413955 0.021537699 0.020117637 -0.0071088374 0.0013773255
0.0118163265 -0.013958624 -0.0026631895 -0.01861914 0.003795348 -0.018276893 -0.0016540643 -0.009229884
0.01966253 -0.005616661 0.0013053268 0.006792154 -0.017092634 0.0025351662 -0.011466276 -0.007945305
0.015101425 -0.010395193 -0.013562603 -0.00050572306 -0.008093538 0.008670539 0.023529358 0.0060587823
0.007036168 -0.012411236 -0.01958755 -0.0054840855 -0.016666647 0.021961391 0.018185813 0.015495326
0.014082156 -0.019455554 0.024697024 -0.01386616 0.021293018 0.012468476 0.02008183 0.016762633
0.016776424 0.002078155 -0.0018332712 -0.00037294626 -0.022721257 -0.007450754 -0.021586075 -0.0073548183
0.013683852 0.009454086 -0.010862757 0.014838941 0.014609396 0.025126792 -0.0051036756 0.00994074
0.016599897 -0.009961236 0.0005003195 0.0064217 0.013930753 0.021576662 -0.008968491 0.004686624
-0.011781968 -0.023202881 -0.0005723331 0.002495693 -0.0016550533 -0.01125404 -0.02044864 -0.011687264
0.0026243571 -0.007553721 -0.014740542 -0.014965009 0.0046986155 -0.0034168232 -0.02109538 0.006399147
0.005586505 0.0027848594 -0.018166754 0.0055994913 -0.015253712 0.0073311217 0.011496678 -0.016010191
0.00072805956 0.008407816 -0.016830932 0.012188565 0.018645532 0.022398442 0.016254779 0.012517009
-0.0244534 0.0026836526 -0.02155467 0.018016439 -0.009133177 0.0038646199 -0.018151239 0.01572803
00000000: d815 e73b c01b a33c 1c4a 6b3c 16e1 54bc
00000010: c008 f539 60c6 733a 402d 95ba 8894 323b
00000020: 88a2 713c 1c7f 2a3c cc75 b6bc 307a debb
00000030: 881b d63b e6a8 c9bc 49a8 88bc 8475 82bc
00000040: 32d3 49bc b46b b63c d005 b63b 7157 48bc
00000050: 400d e5ba f639 80bc 4c96 2d3c c017 f6bb
00000060: ddaa 37bc d7c3 c9bc 4cd1 023c ca00 b43c
00000070: 200d af3a 1822 233b 486f b83c 30e5 b23c
00000080: ecf5 083c 54e0 b0bc 28c3 4a3b 7e43 c3bc
00000090: 0ed2 b0bc 1cc9 6d3c ec6e 1a3c 2ca3 7e3c
000000a0: d824 2a3c 000a cfbb eca5 733c 4b7f a2bc
000000b0: dc41 863c 066a ce3c 900a b33b 60cc 2bbc
000000c0: d02d 273c 365a 86bc fe59 863c c4ba b93b
000000d0: fe67 a7bc ae9a b9bc 1ce5 ba3c 48e5 9c3c
000000e0: 4ce5 8bbc f800 73bc e049 58ba 10ea 813c
000000f0: d4f2 833c 0c4e e0bb 3044 103c 8202 68bc
00000100: 50e5 e5ba 50df f63b 4eae b13c be11 b4bc
00000110: 2c8f c33c 5b12 2bbc c09b af3c 1c45 853c
00000120: e0bb a7bc a0df aebc 8865 98bb 90fa 9b3c
00000130: f73e 50bc a865 98bb 2104 65bc 801c e839
00000140: 18e3 4e3c 3878 9abb 4033 f43b b823 6c3b
00000150: 244b cd3c a7d8 c2bc ec62 8abc 28f0 cb3c
00000160: 749b a93c 34eb 46bc 006a cf38 1200 ad3c
00000170: 605f b83c 489f c7bc 08af 0ebc 60fa c83c
00000180: b0c6 eb3b 94f1 b23c de4b 9a3c a0ee b13b
00000190: 2654 acbc 54fb 9bbc b0a6 36bc 1ad3 983c
000001a0: 0a6c 86bc a81b 323b 20ed b4bc 48b8 253b
000001b0: 4033 be3a 906d f23a e824 c5bb d54d 71bc
000001c0: b89a cb3b 80db edb9 7028 0c3c 3ba2 72bc
000001d0: 48c3 a1bb 517b 70bc c348 33bc c88d 7e3c
000001e0: d30d babc 682a a4bb 180b cabb ec79 c2bc
000001f0: 6881 a9bb c0af e63b 765e 9c3c 7228 c23c
00000200: 1aa5 8fbc 9819 913c 266e c23c a713 7bbc
00000210: 5ab6 843c 1ce3 923c c8c9 5d3c e46b 7d3c
00000220: 2c0c 933b 060e 1fbc 81da bebc 2838 303c
00000230: 2366 72bc c68d bb3c 8689 9f3c d30f 99bc
00000240: 3312 2dbc d34e c7bc ce54 b1bc 8c67 b1bb
00000250: d46f b03c becd a43c 40f1 e8bb 6087 b43a
00000260: 4499 413c b6b2 64bc e888 2ebb 2b87 98bc
00000270: 60bb 783b 6cb9 95bc 30cd d8ba f038 17bc
00000280: 5013 a13c f80b b8bb 8017 ab3a b890 de3b
00000290: da05 8cbc 0825 263b 0cdd 3bbc 062d 02bc
000002a0: f86b 773c 9950 2abc ae35 5ebc 8092 04ba
000002b0: c29a 04bc e00e 0e3c a4c0 c03c c088 c63b
000002c0: a88f e63b 7f58 4bbc 1276 a0bc d8b3 b3bb
000002d0: 7e88 88bc 60e8 b33c 6afa 943c 1ce0 7d3c
000002e0: d8b8 663c 4161 9fbc 6a51 ca3c e42e 63bc
000002f0: b26e ae3c 9448 4c3c a682 a43c ca51 893c
00000300: b66e 893c a831 083b 604a f0ba 0088 c3b9
00000310: ee21 babc 7425 f4bb 48d5 b0bc b000 f1bb
00000320: 3c32 603c 50e5 1a3c b5f9 31bc 081f 733c
00000330: 405c 6f3c b4d6 cd3c bc3c a7bb 7cde 223c
00000340: 82fc 873c 7434 23bc e027 033a 206d d23b
00000350: d03d 643c 8ac1 b03c 94f0 12bc 4092 993b
00000360: 2809 41bc f813 bebc a008 16ba c88e 233b
00000370: 60ee d8ba dd62 38bc e883 a7bc f07b 3fbc
00000380: 68fd 2b3b 3485 f7bb 5082 71bc cc2f 75bc
00000390: d8f6 993b c8ec 5fbb 38d0 acbc f0af d13b
000003a0: 000f b73b 3082 363b 72d2 94bc f07b b73b
000003b0: b5ea 79bc e839 f03b 905c 3c3c ce27 83bc
000003c0: 40db 3e3a f0c0 093c 06e1 89bc 8cb2 473c
000003d0: 84be 983c f07c b73c be28 853c 2414 4d3c
000003e0: 7f52 c8bc 38e0 2f3b 6b93 b0bc 3697 933c
000003f0: 52a3 15bc 9045 7d3b e8b1 94bc 12d8 803c

bias f4 [10]
0.010524109 -0.0040330943 -0.024351567 0.0015519727 0.006650958 -0.023531226 -0.02497495 -0.009907328
0.020198751 -0.013789895
00000000: 506d 2c3c 0c28 84bb f07c c7bc 906b cb3a
00000010: 48f0 d93b 8fc4 c0bc 4498 ccbc 5852 22bc
00000020: da77 a53c 03ef 61bc
